model/model.pth (torch, 16787 bytes, 4 tensors)

linear1.weight f4 [256, 11]
0	0x3ef3566a	0.47526866
1	0x3bfc5727	0.007700819
2	0xbe493de9	-0.19652523
3	0xbe558e9f	-0.20855187
4	0xbe70f07d	-0.23529239
5	0xbdba5103	-0.09097483
6	0x3ec8d03e	0.39221376
7	0x3cc62963	0.024189657
8	0x3ec2a9cb	0.38020167
9	0xbeea1629	-0.45720032
10	0xbdb35619	-0.08756656
11	0xbd29f3a0	-0.041492105
12	0x3eaef9d5	0.34174982
13	0x3c3437ce	0.010999633
14	0x3daa7fd3	0.08325162
15	0x3e1980cf	0.14990543
16	0xbb48fe45	-0.0030669135
17	0x3d16850d	0.03674798
18	0x3eb11576	0.34586686
19	0x3e889567	0.26676485
20	0x3e2626cd	0.16225739
21	0x3e0b85d8	0.13625276
22	0x3e5dc93c	0.21658796
23	0x3ef475a9	0.47746018
24	0xbe4200ee	-0.18945667
25	0x3dafb097	0.08578604
26	0xbe5e96af	-0.21737169
27	0xbe364b16	-0.1780208
28	0x3de8dafb	0.11369892
29	0x3dc13914	0.09434715
30	0xbdf518d0	-0.11967623
31	0xbefeefc4	-0.49792302
32	0x3e08b8b9	0.13351716
33	0xbe3ffb9f	-0.1874833
34	0x3f0a5250	0.5403185
35	0xbecee6ca	-0.40410453
36	0x3ed2b7ba	0.41155797
37	0x3e73ba5b	0.23801558
38	0x3ee13426	0.439851
39	0xbd9e51df	-0.077304594
40	0x3d7b16cb	0.061301034
41	0x3d3c6e33	0.04600353
42	0xbd4abd4b	-0.04949693
43	0xbe211f54	-0.15734607
44	0xbd99f678	-0.07517713
45	0xbe8a17d2	-0.26971298
46	0xbd00454f	-0.031316098
47	0xbec93b57	-0.39303085
48	0xbe16f9f8	-0.14743793
49	0x3ed838cb	0.4223083
50	0xbf2526a6	-0.645121
51	0xbe82f996	-0.25581044
52	0xbf52aae8	-0.8229203
53	0x3f05789d	0.52137166
54	0xbf0b9d21	-0.54536635
55	0x3e1da6dc	0.15395683
56	0xbece7736	-0.40325326
57	0xbe3c6dc4	-0.18401247
58	0x3e045357	0.12922417
59	0x3e05872c	0.13039845
60	0xbf0bfb3d	-0.54680234
61	0xbe628880	-0.22122383
62	0xbf0532ff	-0.5203094
63	0xbec71e29	-0.38890198
64	0x3dc89c08	0.097953856
65	0x3e5a3532	0.21309355
66	0x3e2c1f5f	0.16808842
67	0x3e2fba12	0.17160824
68	0xbe08d35e	-0.1336188
69	0xbb073383	-0.0020630069
70	0x3ee7a053	0.45239505
71	0xbe3af2f7	-0.18256746
72	0x3e91b7bd	0.28460494
73	0xbefdcabc	-0.49568737
74	0xbec01d9a	-0.37522584
75	0x3e678c6a	0.22612157
76	0xbe7deb2e	-0.24796745
77	0xbe3db51f	-0.18526123
78	0xbe4036ac	-0.18770856
79	0xbe713832	-0.23556593
80	0xbf04b71e	-0.51841915
81	0x3d0dcf74	0.03462167
82	0xbf104cf0	-0.563674
83	0x3e7a6ce1	0.24455597
84	0xbf11dfea	-0.5698229
85	0xbea194ff	-0.31558987
86	0xbeb8dbfc	-0.36105335
87	0x3ee77189	0.45203808
88	0xbc3907c5	-0.011293356
89	0xbe16532b	-0.14680164
90	0x3e07e333	0.13270263
91	0x3e28185c	0.16415542
92	0x3d959966	0.07304649
93	0x3ac390ce	0.0014920474
94	0xbe7fcbd8	-0.24980104
95	0xbe446548	-0.1917926
96	0x3d8464d2	0.064645424
97	0xbea095a1	-0.31364158
98	0xbe810b7f	-0.25204083
99	0xbf2d588f	-0.67713255
100	0x3e7b7bc9	0.24558939
101	0x3d0caa74	0.034342244
102	0xbd5381a9	-0.051637325
103	0x3c6b0704	0.014344934
104	0xbec057cf	-0.37566993
105	0x3e09403f	0.13403414
106	0x3e7566f3	0.23965053
107	0x3e5c904c	0.2153942
108	0xbe3606eb	-0.17776076
109	0x3ea40285	0.32033172
110	0x3e91841f	0.28421113
111	0xbd4b04eb	-0.049565237
112	0xbdd2ac51	-0.10286773
113	0xbc2cc85c	-0.010545816
114	0xbea8ce57	-0.32969925
115	0x3eae5b4c	0.3405403
116	0x3ef542a9	0.4790242
117	0x3dfe4e58	0.12417287
118	0x3edf774f	0.43645713
119	0xbe2202e6	-0.15821418
120	0xbe9b52b8	-0.30336547
121	0xbe3c996d	-0.18417902
122	0xbf009fd7	-0.50243896
123	0x3e9a5c64	0.30148613
124	0x3e815585	0.2526056
125	0x3e7d13f4	0.24714643
126	0x3e327c37	0.17430197
127	0x3dcacbf7	0.099021845
128	0xbe78f7ba	-0.2431325
129	0xbe620735	-0.22073062
130	0xbe66e678	-0.22548854
131	0xbdb5c966	-0.08876304
132	0x3e920eef	0.28527018
133	0x3cd7d8ec	0.026348554
134	0x3d101f76	0.035186253
135	0xbeb0ba24	-0.34517014
136	0x3d47eabd	0.04880785
137	0x3eb053bf	0.34438893
138	0xbec8cf96	-0.39220876
139	0x3eaff36f	0.34365413
140	0xbde30d55	-0.11086527
141	0xbecc9d59	-0.39963797
142	0xbf165278	-0.5871959
143	0xbe6abd6f	-0.22923826
144	0x3efae34e	0.49001545
145	0xbe929d25	-0.28635517
146	0xbe689c60	-0.22715902
147	0x3e5f4553	0.21803789
148	0xbe85dd8f	-0.26145598
149	0x3e8d7d8b	0.27634844
150	0xbe7deb09	-0.2479669
151	0x3e848346	0.25881404
152	0xbcb85cd7	-0.022505207
153	0x3e6408c9	0.22268976
154	0x3e90f030	0.2830825
155	0x3d0affaa	0.033935227
156	0xbea823be	-0.3283977
157	0x3e048256	0.12940344
158	0x3dd9cd7d	0.10634897
159	0x3ec50008	0.38476586
160	0x3e558508	0.20851529
161	0xbee15174	-0.44007456
162	0xbf083308	-0.5320287
163	0x3e65b5df	0.2243266
164	0x3e1a0b38	0.15043342
165	0xbcbc1df9	-0.02296351
166	0xbe0309d5	-0.1279672
167	0xbecf0f02	-0.40441138
168	0xbec2e488	-0.3806498
169	0x3f1b1ccb	0.6059081
170	0xbec658e0	-0.3873968
171	0xbc51aea9	-0.01279799
172	0xbf0a4dc8	-0.54024935
173	0x3ed58111	0.41700032
174	0xbe237e64	-0.15966183
175	0xbedac09b	-0.4272507
176	0xbda3216b	-0.07965358
177	0x3e82d3de	0.25552267
178	0xbe83e166	-0.25757903
179	0x3ec8323d	0.3910083
180	0xbeaf65d4	-0.34257376
181	0x3de42bd4	0.11141172
182	0xbf0d7b74	-0.552665
183	0x3eef9b87	0.46798345
184	0xbe854239	-0.26027086
185	0xbeccd4f2	-0.40006214
186	0x3e1a7b10	0.15086007
187	0xbe94fd05	-0.2909929
188	0xbd8d7438	-0.069069326
189	0xbe9710cb	-0.29505
190	0xbebad0ab	-0.36487326
191	0xbd92bd85	-0.07165054
192	0x3ecd003f	0.4003925
193	0x3e764a56	0.24051794
194	0x3ec33707	0.3812792
195	0x3c3e2c81	0.01160729
196	0xbefa8f0d	-0.48937264
197	0xbe8e7a60	-0.2782774
198	0x3e939dca	0.2883132
199	0x3d8ccf5e	0.0687549
200	0xbede568f	-0.43425414
201	0x3e2a25be	0.1661596
202	0xbe76795a	-0.2406973
203	0x3f16bf2d	0.5888546
204	0xbc1ee9fc	-0.009699341
205	0x3dbce9cb	0.0922428
206	0x3ed6d5d0	0.4196
207	0xbe9f3052	-0.31091553
208	0x3e6fc7a2	0.23415998
209	0x3ecd6b4c	0.40120924
210	0xbd331f6a	-0.04373113
211	0xbe19d411	-0.15022303
212	0xbe96022a	-0.29298526
213	0x3e9e5b6b	0.3092912
214	0x3ec16235	0.3777024
215	0xbeb6be3a	-0.35692006
216	0x3eadff6a	0.33983928
217	0xbe8259db	-0.2545918
218	0xbea7440f	-0.32669112
219	0x3ef718e4	0.48261178
220	0x3e42a105	0.19006737
221	0xbd7dcfea	-0.06196586
222	0xbde4e7be	-0.11177014
223	0x3ea02c2b	0.31283697
224	0xbef18fdb	-0.47180066
225	0x3ec8a762	0.39190203
226	0xbee68dbe	-0.45030016
227	0xbef034b8	-0.4691522
228	0xbf0e99e0	-0.55703545
229	0x3e9551b4	0.29163897
230	0xbf05b07b	-0.5222241
231	0x3c0a5ff9	0.008445733
232	0x3d8432c9	0.06454999
233	0x3ed78e0d	0.42100564
234	0xbe619561	-0.2202964
235	0x3eb3ebd3	0.35140857
236	0x3d4dbf7d	0.050231446
237	0xbf0f48b8	-0.55970335
238	0xbf0e0c31	-0.5548735
239	0xbe94a7f7	-0.29034397
240	0xbe457078	-0.19281185
241	0x3eb33637	0.350023
242	0x3efa44c1	0.4888058
243	0xbe064d42	-0.13115409
244	0xbf23907c	-0.6389234
245	0xbe905444	-0.2818929
246	0x3ec98a63	0.39363393
247	0x3e88529f	0.26625535
248	0x3efc2e98	0.49254298
249	0x3f06627b	0.5249402
250	0xbe6520f8	-0.22375858
251	0xbd9514fe	-0.072793946
252	0xbe222ee7	-0.15838204
253	0x3e12b275	0.14325888
254	0xbe8d20b7	-0.27564022
255	0x3db4db62	0.088309065

linear1.bias f4 [256]
0	0xbe0df40f	-0.13862632
1	0xbe99216e	-0.29908317
2	0xbd7af411	-0.061267916
3	0x3d34733f	0.04405522
4	0x3da7b9e9	0.081897564
5	0x3e777d66	0.2416893
6	0xbe7633a0	-0.24043131
7	0x3dbd8ef4	0.09255782
8	0xbec46dc4	-0.38364995
9	0xbe3c7a20	-0.18405962
10	0xbdfce169	-0.12347681
11	0x3f747637	0.9549288
12	0xbd44af6c	-0.048018858
13	0xbd894df8	-0.067043245
14	0x3e108441	0.14112951
15	0xbdd3bbe5	-0.103385724
16	0x3d1778b4	0.036980346
17	0xbd061724	-0.032736912
18	0xbe8b311f	-0.27185914
19	0xbd683b08	-0.05669692
20	0x3e2ad5d3	0.1668313
21	0xbe398386	-0.18116578
22	0xbe872541	-0.2639561
23	0xbebcfa61	-0.36909774
24	0xbd6e80e2	-0.05822838
25	0x3f0bc51d	0.54597646
26	0x3ed26570	0.41093016
27	0x3e874031	0.26416162
28	0xbe782abc	-0.24235052
29	0xbe59d1d4	-0.2127145
30	0xbe362546	-0.17787656
31	0xbe8d046c	-0.27542436
32	0x3c91bf65	0.01779146
33	0xbea5d63f	-0.3239002
34	0x3d8b217f	0.06793498
35	0xbe71593d	-0.23569198
36	0xbe6150de	-0.22003505
37	0xbdf46ea3	-0.11935165
38	0x3e4f4400	0.20240784
39	0x3bf9ee75	0.0076273032
40	0xbe24b11e	-0.1608319
41	0xbcbfd286	-0.023415815
42	0xbd8677f7	-0.0656585
43	0x3dff5168	0.12466699
44	0xbed74718	-0.42046428
45	0xbeb268b0	-0.34845495
46	0xbe2f0c8f	-0.17094634
47	0xbdfe39c6	-0.12413363
48	0xbd8d7db2	-0.0690874
49	0x3df6794d	0.12034855
50	0x3ded075a	0.11573668
51	0x3cf4c188	0.02987744
52	0xbea1020c	-0.31446874
53	0x3e1c6f7e	0.15276906
54	0x3ef04b15	0.46932283
55	0xbea3e907	-0.32013723
56	0xbc652fcb	-0.0139884455
57	0xbe9dfe23	-0.30857953
58	0xbd1a37a3	-0.037650716
59	0xbd83f725	-0.064436235
60	0xbe49aad7	-0.19694076
61	0x3ef80481	0.48440936
62	0xbeb93162	-0.3617049
63	0xbe27feb6	-0.16405758
64	0x3ed18614	0.40922606
65	0xbe01b2df	-0.1266589
66	0xbd5e3745	-0.054251928
67	0x3eaca05c	0.33716094
68	0xbdc27660	-0.094952345
69	0xbe711d04	-0.23546225
70	0x3dfb0825	0.12257413
71	0xbdb80662	-0.089855924
72	0xbe80566b	-0.25065932
73	0x3de04990	0.10951531
74	0xbb8276ff	-0.0039814706
75	0x3d1bd68e	0.038046412
76	0xbe3010f0	-0.17193961
77	0x3e240ae5	0.16019781
78	0xbe72582f	-0.23666452
79	0xbe2fc842	-0.17166236
80	0xbd8f5aff	-0.06999778
81	0xbd951966	-0.07280235
82	0x3da22c2c	0.07918581
83	0x3e4ffc33	0.2031105
84	0x3ea93abf	0.33052632
85	0xbe6020e6	-0.2188755
86	0x3e8d8890	0.2764325
87	0x3d971553	0.07377114
88	0xbdb1c7af	-0.08680665
89	0xbe24b9d6	-0.16086516
90	0x3cd5d39c	0.02610188
91	0x3ba29af3	0.004962319
92	0x3e10493e	0.1409044
93	0x3eab1643	0.33415422
94	0xbe60cec5	-0.21953876
95	0xbe49b8ec	-0.19699448
96	0xbe26a008	-0.16271985
97	0xbeae8c35	-0.34091344
98	0xbe8702bb	-0.2636927
99	0xbe95849d	-0.29202738
100	0x3e930b87	0.28719732
101	0x3e2b5760	0.1673255
102	0xbdd0ee3f	-0.10201692
103	0xbd2e82d4	-0.042605236
104	0xbe03d687	-0.12874804
105	0x3e98ab1a	0.2981804
106	0xbe2c0763	-0.16799693
107	0xbebda539	-0.37040117
108	0x3c0be622	0.008538755
109	0x3e998792	0.29986244
110	0xbcd54c1a	-0.026037265
111	0x3cae90ad	0.021309221
112	0x3ce12b99	0.02748661
113	0xbe54e14d	-0.2078907
114	0x3d272188	0.040803462
115	0x3f5f5696	0.87241495
116	0xbe557bfb	-0.20848076
117	0xbd5cdb1f	-0.053919908
118	0xbca7f2ab	-0.020501455
119	0xbe99e59f	-0.30058
120	0xbe52118f	-0.2051451
121	0xbe8ec61c	-0.2788552
122	0xbe05d669	-0.13070072
123	0xbe3cfaea	-0.18455091
124	0x3d81e14f	0.06341802
125	0xbe449186	-0.19196138
126	0xbe91414c	-0.2837013
127	0x3e16c76b	0.1472451
128	0xbe366c96	-0.1781486
129	0x3ef27de9	0.47361687
130	0xbd314093	-0.043274473
131	0x3e23d29f	0.15998314
132	0xbe8181fd	-0.25294486
133	0xbedbe6b6	-0.42949456
134	0xbbafdcf1	-0.0053669144
135	0x3eecf65d	0.4628171
136	0x3d1d17a0	0.03835261
137	0xbe830765	-0.2559158
138	0xbdab2a1b	-0.0835764
139	0xbec5d149	-0.38636234
140	0xbde8d4c8	-0.1136871
141	0x3e0b8bb5	0.13627513
142	0x3f18da93	0.5970852
143	0x3deadbcf	0.114677064
144	0xbe89700f	-0.26843306
145	0xbe4572e9	-0.19282116
146	0x3e4dfc23	0.20115714
147	0x3dbe1077	0.09280484
148	0xbe0e1375	-0.1387461
149	0x3e8ad5e0	0.271163
150	0xbd894b66	-0.06703834
151	0xbe98b55d	-0.2982587
152	0xbeae3215	-0.34022585
153	0x3ece4945	0.40290275
154	0x3e9f3d5b	0.31101498
155	0x3d985b70	0.07439315
156	0xbea1fd1a	-0.31638414
157	0xbe518884	-0.20462233
158	0x3d2d5dd7	0.04232582
159	0x3daa36b7	0.08311217
160	0x3f036ac2	0.51334774
161	0xbe7d2dee	-0.24724552
162	0xbd1ae6cf	-0.037817772
163	0x3dd41769	0.10356028
164	0xbe87b436	-0.26504678
165	0x3d9021a4	0.070376664
166	0x3e6b6c18	0.22990453
167	0x3eb1ba23	0.34712324
168	0x3e433d1b	0.19066279
169	0xbe6b7ef0	-0.22997642
170	0xbe696150	-0.22791028
171	0xbedc99c7	-0.43086073
172	0xbb3125dc	-0.0027030623
173	0xbe945071	-0.28967622
174	0xbe03c10a	-0.12866607
175	0x3deaec1c	0.114708155
176	0x3e24a4fb	0.1607856
177	0x3d802355	0.06256739
178	0x3d8a9aca	0.06767805
179	0xbe4ff482	-0.20308116
180	0xbe6cd939	-0.23129739
181	0x3f11372c	0.5672481
182	0x3da04d55	0.0782725
183	0x3d776bd5	0.06040557
184	0x3d454493	0.0481611
185	0xbec551ff	-0.3853912
186	0xbef466b0	-0.47734594
187	0xbdcd99f5	-0.100391306
188	0xbe605069	-0.21905674
189	0xbe4f6504	-0.20253378
190	0xbde932b2	-0.113866225
191	0xbdfaaba8	-0.12239772
192	0xbd85cfb4	-0.06533757
193	0xbeb52252	-0.35377747
194	0xbdcb81b3	-0.099368475
195	0xbe403816	-0.18771395
196	0x3e39f9f7	0.1816176
197	0x3f0a74d7	0.54084533
198	0xbd11f2fe	-0.035632126
199	0xbe422a68	-0.18961489
200	0xbe594ce3	-0.21220736
201	0xbe2fd3cf	-0.17170642
202	0x3ddc55d4	0.10758558
203	0x3f27853e	0.65437686
204	0x3dfaec4a	0.122521
205	0x3e95aad0	0.29231882
206	0xbded60f8	-0.11590761
207	0xbe69ed08	-0.22844326
208	0xbec8e3d3	-0.39236316
209	0xbe8a3382	-0.26992422
210	0xbea99bc5	-0.33126655
211	0x3d869d7b	0.06573006
212	0xbde1bb03	-0.11021998
213	0xbe1cc1d8	-0.1530832
214	0xbdd10acb	-0.10207137
215	0xbc164276	-0.009171119
216	0xbea4dec5	-0.3220121
217	0xbe749858	-0.2388624
218	0xbe6d868e	-0.2319586
219	0xbe6094e9	-0.21931805
220	0xbebfb61d	-0.3744363
221	0xbddd3f2c	-0.10803065
222	0x3e324db5	0.17412455
223	0xbeb736df	-0.3578405
224	0x3e94cf76	0.2906453
225	0xbe957ccd	-0.29196778
226	0xbdfe9857	-0.124314
227	0x3c6a9366	0.014317369
228	0x3d8333a4	0.06406334
229	0x3e4cb2b0	0.19990039
230	0x3de4c9c7	0.111712985
231	0xbd421038	-0.04737875
232	0x3c32c5c3	0.010911408
233	0xbd2e5254	-0.042558983
234	0x3e5fb063	0.2184463
235	0xbe30f806	-0.17282113
236	0x3efd19e1	0.49433807
237	0xbe161136	-0.14655003
238	0xbe05b724	-0.13058144
239	0xbbb6987b	-0.0055723763
240	0xbe6cf05b	-0.23138563
241	0xbed89605	-0.42301956
242	0x3c466c29	0.012110748
243	0xbe0368da	-0.12832966
244	0xbe8c6f82	-0.27428824
245	0xbe34e123	-0.17664008
246	0xbe63ceb4	-0.2224682
247	0x3de1e075	0.1102914
248	0x3cb5c478	0.02218841
249	0xbe5e24c9	-0.2169372
250	0xbe007863	-0.12545924
251	0xbcbb1b70	-0.022840232
252	0xbde5dc5e	-0.11223672
253	0xbe86a939	-0.26300982
254	0xbd8458b5	-0.06462232
255	0xbe958ef9	-0.29210642

linear2.weight f4 [3, 256]
0	0xbe1948c7	-0.14969169
1	0xbd321be3	-0.043483626
2	0x3d769dbb	0.060209017
3	0x3e313904	0.17306906
4	0x3f0a5b85	0.540459
5	0x3a0ae91f	0.000529902
6	0xbe656d4a	-0.22404972
7	0x3eab990d	0.33515206
8	0xbc127844	-0.008939806
9	0x3d900d33	0.070337676
10	0xbf17b721	-0.5926381
11	0x3e8f78a0	0.28021717
12	0xbeb991f5	-0.3624417
13	0x3e52aa12	0.20572689
14	0x3e891a92	0.26778084
15	0x3ed41030	0.414186
16	0x3eabdee7	0.33568498
17	0xbef8c24d	-0.4858574
18	0xbe6a5eb3	-0.22887687
19	0xbf04a652	-0.51816285
20	0x3eddea5e	0.4334287
21	0xbe388d42	-0.18022636
22	0xbf07aeae	-0.53000915
23	0x3cd89d75	0.026442269
24	0xbeae4f0e	-0.3404469
25	0x3ecc09ce	0.3985123
26	0x3e3ab748	0.18233979
27	0x3e1291be	0.14313409
28	0xbe0960e7	-0.13415872
29	0xbeba4710	-0.3638234
30	0xbd3e940c	-0.046527907
31	0x3db93717	0.09043711
32	0xbf07e118	-0.5307784
33	0xbe634a8e	-0.22196409
34	0xbecd83b5	-0.40139547
35	0xbddc6d23	-0.10763004
36	0xbe29ccf0	-0.16582084
37	0xbdf36bcd	-0.11885796
38	0x3e7383b2	0.23780707
39	0xbe358d80	-0.17729759
40	0xbeba8232	-0.36427456
41	0xbed166ff	-0.40898892
42	0xbdf81586	-0.1211348
43	0xbe5a1d62	-0.21300271
44	0xbe07f11d	-0.13275571
45	0xbe7de1d0	-0.24793172
46	0x3d3226de	0.043494098
47	0xbe1e0d72	-0.15434816
48	0xbec6adce	-0.38804477
49	0x3e2ca70e	0.16860601
50	0x3e5c578e	0.21517774
51	0xbed29516	-0.4112937
52	0xbddda537	-0.10822528
53	0x3daf9ed2	0.085752144
54	0x3eef9aa6	0.46797675
55	0xba7d1b02	-0.00096552086
56	0x3d94ace1	0.072595365
57	0xbdd949b5	-0.106097616
58	0xbd53d3cd	-0.05171566
59	0xbd703aa6	-0.05864968
60	0xbd7f8678	-0.0623841
61	0x3e689fc5	0.22717197
62	0xbc63034e	-0.013855768
63	0xbe948a32	-0.29011685
64	0x3dcf1683	0.10111716
65	0xbe4bfe3e	-0.19921204
66	0x3ee79375	0.45229688
67	0x3df8db5e	0.12151216
68	0x3e82c8bb	0.2554377
69	0xbda40d64	-0.080103666
70	0xbe96b71f	-0.29436585
71	0xbd87e1a8	-0.066348374
72	0xbe104fd9	-0.1409296
73	0x3e0e1721	0.1387601
74	0x3e5ca6b7	0.21547972
75	0x3e7da4e2	0.24769929
76	0xbd163529	-0.03667179
77	0x3e9a9439	0.3019121
78	0x3d1778af	0.036980327
79	0xbdfa27ee	-0.12214647
80	0x3d39d3dc	0.04536806
81	0x3e165519	0.146809
82	0x3e9115e7	0.28337023
83	0x3da0bedf	0.07848906
84	0x3e056d17	0.13029896
85	0xbe0f4720	-0.13991976
86	0x3e4914cb	0.19636838
87	0x3e4a9a5d	0.19785447
88	0xbeb4f89f	-0.35345933
89	0x3e114e89	0.14190115
90	0x3e748857	0.23880135
91	0x3c7b7f0f	0.015350117
92	0x3ec30066	0.3808624
93	0x3e3b6504	0.18300253
94	0xbe5251e8	-0.20539057
95	0xbe597972	-0.21237734
96	0xbc6c5b21	-0.014426024
97	0xbee632e5	-0.44960704
98	0xbdc7c249	-0.09753854
99	0xbe4d80e9	-0.20068707
100	0x3dd14279	0.10217757
101	0x3e3582f1	0.17725731
102	0xbc2b9f1e	-0.010474948
103	0x3cabd14f	0.02097383
104	0xbe54d5bd	-0.2078466
105	0x3eb67f03	0.35643777
106	0xbda75ce6	-0.08172016
107	0xbdec79c6	-0.11546664
108	0xbe801ac6	-0.25020427
109	0x3e90b2ee	0.28261513
110	0xbdcb109d	-0.09915278
111	0x3d6663f0	0.05624765
112	0xbd973930	-0.073839545
113	0xbe7c3ca7	-0.24632512
114	0x3e24ec26	0.16105708
115	0x3ea8251c	0.32840812
116	0xbea8725b	-0.32899746
117	0x3c6ea45d	0.014565554
118	0xbe019cb0	-0.12657428
119	0x3d544858	0.051826805
120	0xbf23148d	-0.63703233
121	0xbdd49153	-0.10379281
122	0xbecd5cdc	-0.4010991
123	0xbf04c2c7	-0.51859707
124	0x3e268b36	0.16264042
125	0xbeb8f7b0	-0.3612647
126	0xbe3ca3e9	-0.18421902
127	0x3d2bfd21	0.04198945
128	0xbdfcd2c1	-0.123448856
129	0x3e2fb5c7	0.17159186
130	0x3d95f806	0.07322697
131	0x3ea60d40	0.32431984
132	0xbe7ed7bb	-0.24886982
133	0xbd2276b8	-0.039664
134	0x3ebbbca9	0.36667374
135	0x3ebc3324	0.36757767
136	0x3e51baa8	0.2048136
137	0xbe206ee1	-0.15667297
138	0xbed78067	-0.4209015
139	0xbe0bfb5e	-0.13670108
140	0x3e155ea7	0.14586888
141	0xbeacda7d	-0.33760443
142	0x3f160eb3	0.5861618
143	0x3e9225a5	0.28544345
144	0xbe16acef	-0.14714406
145	0xbcef27a0	-0.0291937
146	0x3d8e0f85	0.06936554
147	0x3dbede17	0.09319704
148	0xbeb8a963	-0.36066732
149	0xbef20131	-0.47266534
150	0x3e984906	0.29743212
151	0x3d4c748c	0.049915835
152	0xbe50f115	-0.20404465
153	0x3ebc03ad	0.36721554
154	0x3ea6a471	0.32547334
155	0x3c03b4c5	0.008038704
156	0xbd05a50c	-0.032628104
157	0xbe0a3c73	-0.13499622
158	0x3eb4d235	0.35316625
159	0x3d33e2cf	0.043917473
160	0x3e09496a	0.13406911
161	0xbd4b5a68	-0.049646765
162	0xbe160154	-0.14648944
163	0x3ef5727e	0.47938913
164	0xbea76c8f	-0.3270001
165	0x3dbf804f	0.09350645
166	0x3d2fb9dc	0.04290186
167	0x3e739586	0.23787507
168	0x3d8dd175	0.069247164
169	0xbcc4fee8	-0.02404733
170	0xbe355141	-0.17706777
171	0xbe57084f	-0.20999263
172	0xbd50e1ef	-0.050996717
173	0xbea9faf6	-0.3319928
174	0xbc08d50b	-0.008351575
175	0xbe2eff25	-0.17089517
176	0x3ecb2551	0.39676908
177	0x3eb5431e	0.3540277
178	0x3d6bee14	0.057600096
179	0xbd5972e0	-0.05308807
180	0x3a924f9b	0.001116264
181	0x3e0a3455	0.13496526
182	0x3af990f2	0.001904039
183	0x3f09afa9	0.5378366
184	0x3bfdb884	0.0077429432
185	0xbc367c13	-0.01113798
186	0xbd927137	-0.071505
187	0x3e2f15a1	0.17098095
188	0xbe989394	-0.29800093
189	0xbc24f4b1	-0.010068105
190	0xbee5d15a	-0.44886285
191	0xbebd31b6	-0.3695199
192	0xbe2f7b0f	-0.17136787
193	0x3d3978f9	0.045281384
194	0x3d1de730	0.038550556
195	0xbdb6ea93	-0.0893146
196	0x3e8bb966	0.27289885
197	0x3e9b13c1	0.3028851
198	0xbd99c3f8	-0.07508081
199	0xbd37a051	-0.044830624
200	0x3e72eb82	0.23722652
201	0xbc7e182c	-0.015508693
202	0x3e2293fe	0.15876767
203	0x3e89032e	0.26760238
204	0xbefcfcb9	-0.49411562
205	0x3f246ac9	0.6422544
206	0xbccc2d24	-0.024923868
207	0x3c208697	0.009797714
208	0xbea0dc5b	-0.31418118
209	0x3c8d1298	0.01722078
210	0xbe0280e7	-0.12744485
211	0x3dc8b0bb	0.09799334
212	0xbce0249f	-0.027361212
213	0xbe0dc646	-0.13845167
214	0xbd8a1569	-0.06742365
215	0xbe72d538	-0.23714149
216	0xbe169411	-0.1470492
217	0xbbb5e960	-0.005551502
218	0xbd0890b3	-0.03334112
219	0x3bf57de0	0.007491812
220	0xbe3758f9	-0.17905034
221	0xbefb056a	-0.49027568
222	0x3eb201f8	0.34767127
223	0xbd0081cb	-0.03137378
224	0x3ebbc31a	0.36672288
225	0xbd8695ac	-0.065715164
226	0xbec70f8d	-0.38879052
227	0x3e5b0a1a	0.21390572
228	0x3e4b9a04	0.19882971
229	0x3e4833ac	0.19550961
230	0xbd83b0b7	-0.0643019
231	0x3def0abf	0.116719715
232	0x3c404f10	0.0117376
233	0x3ea749bf	0.3267345
234	0x3e8e8e74	0.27843058
235	0xbe05a97a	-0.13052931
236	0x3ea39416	0.31948918
237	0xbe292532	-0.16518095
238	0xbeeb8fc1	-0.46008113
239	0xbb4720c1	-0.0030384513
240	0x3e27f10e	0.16400549
241	0xbe8ee1cc	-0.27906644
242	0xbd80fcd9	-0.06298227
243	0xbd87d134	-0.06631699
244	0xbc2dac3b	-0.010600145
245	0xbecbfb7a	-0.398403
246	0xbee6cb43	-0.4507695
247	0x3edcf69a	0.43156892
248	0xbf05b5e1	-0.5223065
249	0x3d1361cc	0.03598194
250	0xbe3ef2da	-0.18647328
251	0x3ee92011	0.45532277
252	0xbec74fa0	-0.38927937
253	0xbe7279db	-0.23679297
254	0xbe1fabd6	-0.15592894
255	0xbde5c448	-0.11219078

linear2.bias f4 [3]
0	0x3e16e32d	0.14735098
1	0x3cca1ae1	0.02467102
2	0x3def3172	0.11679353
